cuda
----------------------------------------------------------------
        Layer (type)               Output Shape         Param #
================================================================
       BatchNorm2d-1            [-1, 3, 32, 32]               6
            Conv2d-2           [-1, 32, 32, 32]           2,432
            Conv2d-3           [-1, 32, 12, 12]          25,632
            Conv2d-4             [-1, 64, 2, 2]          51,264
            Linear-5                   [-1, 64]           4,160
            Linear-6                   [-1, 10]             650
================================================================
Total params: 84,144
Trainable params: 84,144
Non-trainable params: 0
----------------------------------------------------------------
Input size (MB): 0.01
Forward/backward pass size (MB): 0.31
Params size (MB): 0.32
Estimated Total Size (MB): 0.64
----------------------------------------------------------------

Model Summary:
 None
…
